…
/opt/conda/lib/python3.8/site-packages/torch/functional.py:445: UserWarning: torch.meshgrid: in an upcoming release, it will be required to pass the indexing argument. (Triggered internally at  /opt/pytorch/pytorch/aten/src/ATen/native/TensorShape.cpp:2156.)
return _VF.meshgrid(tensors, **kwargs)  # type: ignore[attr-defined]
local rank 1 / global rank 1 successfully build val dataset
/opt/conda/lib/python3.8/site-packages/torch/functional.py:445: UserWarning: torch.meshgrid: in an upcoming release, it will be required to pass the indexing argument. (Triggered internally at  /opt/pytorch/pytorch/aten/src/ATen/native/TensorShape.cpp:2156.)
return _VF.meshgrid(tensors, **kwargs)  # type: ignore[attr-defined]
[32m[2023-04-30 21:47:40 swin_tiny_patch4_window7_224][0m[33m(main.py 110)[0m: INFO SwinTransformer(
(patch_embed): PatchEmbed(
(proj): Conv2d(3, 96, kernel_size=(4, 4), stride=(4, 4))
(norm): LayerNorm((96,), eps=1e-05, elementwise_affine=True)
)
(pos_drop): Dropout(p=0.0, inplace=False)
(layers): ModuleList(
(0): BasicLayer(
dim=96, input_resolution=(56, 56), depth=2
(blocks): ModuleList(
(0): SwinTransformerBlock(
dim=96, input_resolution=(56, 56), num_heads=3, window_size=7, shift_size=0, mlp_ratio=4.0
(norm1): LayerNorm((96,), eps=1e-05, elementwise_affine=True)
(attn): WindowAttention(
dim=96, window_size=(7, 7), num_heads=3
(qkv): Linear(in_features=96, out_features=288, bias=True)
(attn_drop): Dropout(p=0.0, inplace=False)
(proj): Linear(in_features=96, out_features=96, bias=True)
(proj_drop): Dropout(p=0.0, inplace=False)
(softmax): Softmax(dim=-1)
)
(drop_path): Identity()
(norm2): LayerNorm((96,), eps=1e-05, elementwise_affine=True)
(mlp): Mlp(
(fc1): Linear(in_features=96, out_features=384, bias=True)
(act): GELU(approximate=False)
(fc2): Linear(in_features=384, out_features=96, bias=True)
(drop): Dropout(p=0.0, inplace=False)
)
)
(1): SwinTransformerBlock(
dim=96, input_resolution=(56, 56), num_heads=3, window_size=7, shift_size=3, mlp_ratio=4.0
(norm1): LayerNorm((96,), eps=1e-05, elementwise_affine=True)
(attn): WindowAttention(
dim=96, window_size=(7, 7), num_heads=3
(qkv): Linear(in_features=96, out_features=288, bias=True)
(attn_drop): Dropout(p=0.0, inplace=False)
(proj): Linear(in_features=96, out_features=96, bias=True)
(proj_drop): Dropout(p=0.0, inplace=False)
(softmax): Softmax(dim=-1)
)
(drop_path): DropPath()
(norm2): LayerNorm((96,), eps=1e-05, elementwise_affine=True)
(mlp): Mlp(
(fc1): Linear(in_features=96, out_features=384, bias=True)
(act): GELU(approximate=False)
(fc2): Linear(in_features=384, out_features=96, bias=True)
(drop): Dropout(p=0.0, inplace=False)
)
)
)
(downsample): PatchMerging(
input_resolution=(56, 56), dim=96
(reduction): Linear(in_features=384, out_features=192, bias=False)
(norm): LayerNorm((384,), eps=1e-05, elementwise_affine=True)
)
)
(1): BasicLayer(
dim=192, input_resolution=(28, 28), depth=2
(blocks): ModuleList(
(0): SwinTransformerBlock(
dim=192, input_resolution=(28, 28), num_heads=6, window_size=7, shift_size=0, mlp_ratio=4.0
(norm1): LayerNorm((192,), eps=1e-05, elementwise_affine=True)
(attn): WindowAttention(
dim=192, window_size=(7, 7), num_heads=6
(qkv): Linear(in_features=192, out_features=576, bias=True)
(attn_drop): Dropout(p=0.0, inplace=False)
(proj): Linear(in_features=192, out_features=192, bias=True)
(proj_drop): Dropout(p=0.0, inplace=False)
(softmax): Softmax(dim=-1)
)
(drop_path): DropPath()
(norm2): LayerNorm((192,), eps=1e-05, elementwise_affine=True)
(mlp): Mlp(
(fc1): Linear(in_features=192, out_features=768, bias=True)
(act): GELU(approximate=False)
(fc2): Linear(in_features=768, out_features=192, bias=True)
(drop): Dropout(p=0.0, inplace=False)
)
)
(1): SwinTransformerBlock(
dim=192, input_resolution=(28, 28), num_heads=6, window_size=7, shift_size=3, mlp_ratio=4.0
(norm1): LayerNorm((192,), eps=1e-05, elementwise_affine=True)
(attn): WindowAttention(
dim=192, window_size=(7, 7), num_heads=6
(qkv): Linear(in_features=192, out_features=576, bias=True)
(attn_drop): Dropout(p=0.0, inplace=False)
(proj): Linear(in_features=192, out_features=192, bias=True)
(proj_drop): Dropout(p=0.0, inplace=False)
(softmax): Softmax(dim=-1)
)
(drop_path): DropPath()
(norm2): LayerNorm((192,), eps=1e-05, elementwise_affine=True)
(mlp): Mlp(
(fc1): Linear(in_features=192, out_features=768, bias=True)
(act): GELU(approximate=False)
(fc2): Linear(in_features=768, out_features=192, bias=True)
(drop): Dropout(p=0.0, inplace=False)
)
)
)
(downsample): PatchMerging(
input_resolution=(28, 28), dim=192
(reduction): Linear(in_features=768, out_features=384, bias=False)
(norm): LayerNorm((768,), eps=1e-05, elementwise_affine=True)
)
)
(2): BasicLayer(
dim=384, input_resolution=(14, 14), depth=6
(blocks): ModuleList(
(0): SwinTransformerBlock(
dim=384, input_resolution=(14, 14), num_heads=12, window_size=7, shift_size=0, mlp_ratio=4.0
(norm1): LayerNorm((384,), eps=1e-05, elementwise_affine=True)
(attn): WindowAttention(
dim=384, window_size=(7, 7), num_heads=12
(qkv): Linear(in_features=384, out_features=1152, bias=True)
(attn_drop): Dropout(p=0.0, inplace=False)
(proj): Linear(in_features=384, out_features=384, bias=True)
(proj_drop): Dropout(p=0.0, inplace=False)
(softmax): Softmax(dim=-1)
)
(drop_path): DropPath()
(norm2): LayerNorm((384,), eps=1e-05, elementwise_affine=True)
(mlp): Mlp(
(fc1): Linear(in_features=384, out_features=1536, bias=True)
(act): GELU(approximate=False)
(fc2): Linear(in_features=1536, out_features=384, bias=True)
(drop): Dropout(p=0.0, inplace=False)
)
)
(1): SwinTransformerBlock(
dim=384, input_resolution=(14, 14), num_heads=12, window_size=7, shift_size=3, mlp_ratio=4.0
(norm1): LayerNorm((384,), eps=1e-05, elementwise_affine=True)
(attn): WindowAttention(
dim=384, window_size=(7, 7), num_heads=12
(qkv): Linear(in_features=384, out_features=1152, bias=True)
(attn_drop): Dropout(p=0.0, inplace=False)
(proj): Linear(in_features=384, out_features=384, bias=True)
(proj_drop): Dropout(p=0.0, inplace=False)
(softmax): Softmax(dim=-1)
)
(drop_path): DropPath()
(norm2): LayerNorm((384,), eps=1e-05, elementwise_affine=True)
(mlp): Mlp(
(fc1): Linear(in_features=384, out_features=1536, bias=True)
(act): GELU(approximate=False)
(fc2): Linear(in_features=1536, out_features=384, bias=True)
(drop): Dropout(p=0.0, inplace=False)
)
)
(2): SwinTransformerBlock(
dim=384, input_resolution=(14, 14), num_heads=12, window_size=7, shift_size=0, mlp_ratio=4.0
(norm1): LayerNorm((384,), eps=1e-05, elementwise_affine=True)
(attn): WindowAttention(
dim=384, window_size=(7, 7), num_heads=12
(qkv): Linear(in_features=384, out_features=1152, bias=True)
(attn_drop): Dropout(p=0.0, inplace=False)
(proj): Linear(in_features=384, out_features=384, bias=True)
(proj_drop): Dropout(p=0.0, inplace=False)
(softmax): Softmax(dim=-1)
)
(drop_path): DropPath()
(norm2): LayerNorm((384,), eps=1e-05, elementwise_affine=True)
(mlp): Mlp(
(fc1): Linear(in_features=384, out_features=1536, bias=True)
(act): GELU(approximate=False)
(fc2): Linear(in_features=1536, out_features=384, bias=True)
(drop): Dropout(p=0.0, inplace=False)
)
)
(3): SwinTransformerBlock(
dim=384, input_resolution=(14, 14), num_heads=12, window_size=7, shift_size=3, mlp_ratio=4.0
(norm1): LayerNorm((384,), eps=1e-05, elementwise_affine=True)
(attn): WindowAttention(
dim=384, window_size=(7, 7), num_heads=12
(qkv): Linear(in_features=384, out_features=1152, bias=True)
(attn_drop): Dropout(p=0.0, inplace=False)
(proj): Linear(in_features=384, out_features=384, bias=True)
(proj_drop): Dropout(p=0.0, inplace=False)
(softmax): Softmax(dim=-1)
)
(drop_path): DropPath()
(norm2): LayerNorm((384,), eps=1e-05, elementwise_affine=True)
(mlp): Mlp(
(fc1): Linear(in_features=384, out_features=1536, bias=True)
(act): GELU(approximate=False)
(fc2): Linear(in_features=1536, out_features=384, bias=True)
(drop): Dropout(p=0.0, inplace=False)
)
)
(4): SwinTransformerBlock(
dim=384, input_resolution=(14, 14), num_heads=12, window_size=7, shift_size=0, mlp_ratio=4.0
(norm1): LayerNorm((384,), eps=1e-05, elementwise_affine=True)
(attn): WindowAttention(
dim=384, window_size=(7, 7), num_heads=12
(qkv): Linear(in_features=384, out_features=1152, bias=True)
(attn_drop): Dropout(p=0.0, inplace=False)
(proj): Linear(in_features=384, out_features=384, bias=True)
(proj_drop): Dropout(p=0.0, inplace=False)
(softmax): Softmax(dim=-1)
)
(drop_path): DropPath()
(norm2): LayerNorm((384,), eps=1e-05, elementwise_affine=True)
(mlp): Mlp(
(fc1): Linear(in_features=384, out_features=1536, bias=True)
(act): GELU(approximate=False)
(fc2): Linear(in_features=1536, out_features=384, bias=True)
(drop): Dropout(p=0.0, inplace=False)
)
)
(5): SwinTransformerBlock(
dim=384, input_resolution=(14, 14), num_heads=12, window_size=7, shift_size=3, mlp_ratio=4.0
(norm1): LayerNorm((384,), eps=1e-05, elementwise_affine=True)
(attn): WindowAttention(
dim=384, window_size=(7, 7), num_heads=12
(qkv): Linear(in_features=384, out_features=1152, bias=True)
(attn_drop): Dropout(p=0.0, inplace=False)
(proj): Linear(in_features=384, out_features=384, bias=True)
(proj_drop): Dropout(p=0.0, inplace=False)
(softmax): Softmax(dim=-1)
)
(drop_path): DropPath()
(norm2): LayerNorm((384,), eps=1e-05, elementwise_affine=True)
(mlp): Mlp(
(fc1): Linear(in_features=384, out_features=1536, bias=True)
(act): GELU(approximate=False)
(fc2): Linear(in_features=1536, out_features=384, bias=True)
(drop): Dropout(p=0.0, inplace=False)
)
)
)
(downsample): PatchMerging(
input_resolution=(14, 14), dim=384
(reduction): Linear(in_features=1536, out_features=768, bias=False)
(norm): LayerNorm((1536,), eps=1e-05, elementwise_affine=True)
)
)
(3): BasicLayer(
dim=768, input_resolution=(7, 7), depth=2
(blocks): ModuleList(
(0): SwinTransformerBlock(
dim=768, input_resolution=(7, 7), num_heads=24, window_size=7, shift_size=0, mlp_ratio=4.0
(norm1): LayerNorm((768,), eps=1e-05, elementwise_affine=True)
(attn): WindowAttention(
dim=768, window_size=(7, 7), num_heads=24
(qkv): Linear(in_features=768, out_features=2304, bias=True)
(attn_drop): Dropout(p=0.0, inplace=False)
(proj): Linear(in_features=768, out_features=768, bias=True)
(proj_drop): Dropout(p=0.0, inplace=False)
(softmax): Softmax(dim=-1)
)
(drop_path): DropPath()
(norm2): LayerNorm((768,), eps=1e-05, elementwise_affine=True)
(mlp): Mlp(
(fc1): Linear(in_features=768, out_features=3072, bias=True)
(act): GELU(approximate=False)
(fc2): Linear(in_features=3072, out_features=768, bias=True)
(drop): Dropout(p=0.0, inplace=False)
)
)
(1): SwinTransformerBlock(
dim=768, input_resolution=(7, 7), num_heads=24, window_size=7, shift_size=0, mlp_ratio=4.0
(norm1): LayerNorm((768,), eps=1e-05, elementwise_affine=True)
(attn): WindowAttention(
dim=768, window_size=(7, 7), num_heads=24
(qkv): Linear(in_features=768, out_features=2304, bias=True)
(attn_drop): Dropout(p=0.0, inplace=False)
(proj): Linear(in_features=768, out_features=768, bias=True)
(proj_drop): Dropout(p=0.0, inplace=False)
(softmax): Softmax(dim=-1)
)
(drop_path): DropPath()
(norm2): LayerNorm((768,), eps=1e-05, elementwise_affine=True)
(mlp): Mlp(
(fc1): Linear(in_features=768, out_features=3072, bias=True)
(act): GELU(approximate=False)
(fc2): Linear(in_features=3072, out_features=768, bias=True)
(drop): Dropout(p=0.0, inplace=False)
)
)
)
)
)
(norm): LayerNorm((768,), eps=1e-05, elementwise_affine=True)
(avgpool): AdaptiveAvgPool1d(output_size=1)
(head): Linear(in_features=768, out_features=1000, bias=True)
)
[32m[2023-04-30 21:47:40 swin_tiny_patch4_window7_224][0m[33m(main.py 113)[0m: INFO number of params: 28288354
[32m[2023-04-30 21:47:40 swin_tiny_patch4_window7_224][0m[33m(main.py 116)[0m: INFO number of GFLOPs: 4.49440512
[32m[2023-04-30 21:47:40 swin_tiny_patch4_window7_224][0m[33m(main.py 154)[0m: INFO no checkpoint found in /mnt/tmp/checkpoint, ignoring auto resume
…
