…
return _VF.meshgrid(tensors, **kwargs)  # type: ignore[attr-defined]
local rank 5 / global rank 5 successfully build val dataset
/opt/conda/lib/python3.8/site-packages/torch/functional.py:445: UserWarning: torch.meshgrid: in an upcoming release, it will be required to pass the indexing argument. (Triggered internally at  /opt/pytorch/pytorch/aten/src/ATen/native/TensorShape.cpp:2156.)
return _VF.meshgrid(tensors, **kwargs)  # type: ignore[attr-defined]
[32m[2024-01-21 05:23:18 swin_rope_xy_base_patch4_window7_224][0m[33m(main.py 109)[0m: INFO RoPESwinTransformer(
(patch_embed): PatchEmbed(
(proj): Conv2d(3, 128, kernel_size=(4, 4), stride=(4, 4))
(norm): LayerNorm((128,), eps=1e-05, elementwise_affine=True)
)
(pos_drop): Dropout(p=0.0, inplace=False)
(layers): ModuleList(
(0): RoPEBasicLayer(
dim=128, input_resolution=(56, 56), depth=2
(blocks): ModuleList(
(0): RoPESwinTransformerBlock(
dim=128, input_resolution=(56, 56), num_heads=4, window_size=7, shift_size=0, mlp_ratio=4.0
(norm1): LayerNorm((128,), eps=1e-05, elementwise_affine=True)
(attn): RoPEWindowAttention(
dim=128, window_size=(7, 7), num_heads=4
(qkv): Linear(in_features=128, out_features=384, bias=True)
(attn_drop): Dropout(p=0.0, inplace=False)
(proj): Linear(in_features=128, out_features=128, bias=True)
(proj_drop): Dropout(p=0.0, inplace=False)
(softmax): Softmax(dim=-1)
)
(drop_path): Identity()
(norm2): LayerNorm((128,), eps=1e-05, elementwise_affine=True)
(mlp): Mlp(
(fc1): Linear(in_features=128, out_features=512, bias=True)
(act): GELU(approximate=False)
(fc2): Linear(in_features=512, out_features=128, bias=True)
(drop): Dropout(p=0.0, inplace=False)
)
)
(1): RoPESwinTransformerBlock(
dim=128, input_resolution=(56, 56), num_heads=4, window_size=7, shift_size=3, mlp_ratio=4.0
(norm1): LayerNorm((128,), eps=1e-05, elementwise_affine=True)
(attn): RoPEWindowAttention(
dim=128, window_size=(7, 7), num_heads=4
(qkv): Linear(in_features=128, out_features=384, bias=True)
(attn_drop): Dropout(p=0.0, inplace=False)
(proj): Linear(in_features=128, out_features=128, bias=True)
(proj_drop): Dropout(p=0.0, inplace=False)
(softmax): Softmax(dim=-1)
)
(drop_path): DropPath()
(norm2): LayerNorm((128,), eps=1e-05, elementwise_affine=True)
(mlp): Mlp(
(fc1): Linear(in_features=128, out_features=512, bias=True)
(act): GELU(approximate=False)
(fc2): Linear(in_features=512, out_features=128, bias=True)
(drop): Dropout(p=0.0, inplace=False)
)
)
)
(downsample): PatchMerging(
input_resolution=(56, 56), dim=128
(reduction): Linear(in_features=512, out_features=256, bias=False)
(norm): LayerNorm((512,), eps=1e-05, elementwise_affine=True)
)
)
(1): RoPEBasicLayer(
dim=256, input_resolution=(28, 28), depth=2
(blocks): ModuleList(
(0): RoPESwinTransformerBlock(
dim=256, input_resolution=(28, 28), num_heads=8, window_size=7, shift_size=0, mlp_ratio=4.0
(norm1): LayerNorm((256,), eps=1e-05, elementwise_affine=True)
(attn): RoPEWindowAttention(
dim=256, window_size=(7, 7), num_heads=8
(qkv): Linear(in_features=256, out_features=768, bias=True)
(attn_drop): Dropout(p=0.0, inplace=False)
(proj): Linear(in_features=256, out_features=256, bias=True)
(proj_drop): Dropout(p=0.0, inplace=False)
(softmax): Softmax(dim=-1)
)
(drop_path): DropPath()
(norm2): LayerNorm((256,), eps=1e-05, elementwise_affine=True)
(mlp): Mlp(
(fc1): Linear(in_features=256, out_features=1024, bias=True)
(act): GELU(approximate=False)
(fc2): Linear(in_features=1024, out_features=256, bias=True)
(drop): Dropout(p=0.0, inplace=False)
)
)
(1): RoPESwinTransformerBlock(
dim=256, input_resolution=(28, 28), num_heads=8, window_size=7, shift_size=3, mlp_ratio=4.0
(norm1): LayerNorm((256,), eps=1e-05, elementwise_affine=True)
(attn): RoPEWindowAttention(
dim=256, window_size=(7, 7), num_heads=8
(qkv): Linear(in_features=256, out_features=768, bias=True)
(attn_drop): Dropout(p=0.0, inplace=False)
(proj): Linear(in_features=256, out_features=256, bias=True)
(proj_drop): Dropout(p=0.0, inplace=False)
(softmax): Softmax(dim=-1)
)
(drop_path): DropPath()
(norm2): LayerNorm((256,), eps=1e-05, elementwise_affine=True)
(mlp): Mlp(
(fc1): Linear(in_features=256, out_features=1024, bias=True)
(act): GELU(approximate=False)
(fc2): Linear(in_features=1024, out_features=256, bias=True)
(drop): Dropout(p=0.0, inplace=False)
)
)
)
(downsample): PatchMerging(
input_resolution=(28, 28), dim=256
(reduction): Linear(in_features=1024, out_features=512, bias=False)
(norm): LayerNorm((1024,), eps=1e-05, elementwise_affine=True)
)
)
(2): RoPEBasicLayer(
dim=512, input_resolution=(14, 14), depth=18
(blocks): ModuleList(
(0): RoPESwinTransformerBlock(
dim=512, input_resolution=(14, 14), num_heads=16, window_size=7, shift_size=0, mlp_ratio=4.0
(norm1): LayerNorm((512,), eps=1e-05, elementwise_affine=True)
(attn): RoPEWindowAttention(
dim=512, window_size=(7, 7), num_heads=16
(qkv): Linear(in_features=512, out_features=1536, bias=True)
(attn_drop): Dropout(p=0.0, inplace=False)
(proj): Linear(in_features=512, out_features=512, bias=True)
(proj_drop): Dropout(p=0.0, inplace=False)
(softmax): Softmax(dim=-1)
)
(drop_path): DropPath()
(norm2): LayerNorm((512,), eps=1e-05, elementwise_affine=True)
(mlp): Mlp(
(fc1): Linear(in_features=512, out_features=2048, bias=True)
(act): GELU(approximate=False)
(fc2): Linear(in_features=2048, out_features=512, bias=True)
(drop): Dropout(p=0.0, inplace=False)
)
)
(1): RoPESwinTransformerBlock(
dim=512, input_resolution=(14, 14), num_heads=16, window_size=7, shift_size=3, mlp_ratio=4.0
(norm1): LayerNorm((512,), eps=1e-05, elementwise_affine=True)
(attn): RoPEWindowAttention(
dim=512, window_size=(7, 7), num_heads=16
(qkv): Linear(in_features=512, out_features=1536, bias=True)
(attn_drop): Dropout(p=0.0, inplace=False)
(proj): Linear(in_features=512, out_features=512, bias=True)
(proj_drop): Dropout(p=0.0, inplace=False)
(softmax): Softmax(dim=-1)
)
(drop_path): DropPath()
(norm2): LayerNorm((512,), eps=1e-05, elementwise_affine=True)
(mlp): Mlp(
(fc1): Linear(in_features=512, out_features=2048, bias=True)
(act): GELU(approximate=False)
(fc2): Linear(in_features=2048, out_features=512, bias=True)
(drop): Dropout(p=0.0, inplace=False)
)
)
(2): RoPESwinTransformerBlock(
dim=512, input_resolution=(14, 14), num_heads=16, window_size=7, shift_size=0, mlp_ratio=4.0
(norm1): LayerNorm((512,), eps=1e-05, elementwise_affine=True)
(attn): RoPEWindowAttention(
dim=512, window_size=(7, 7), num_heads=16
(qkv): Linear(in_features=512, out_features=1536, bias=True)
(attn_drop): Dropout(p=0.0, inplace=False)
(proj): Linear(in_features=512, out_features=512, bias=True)
(proj_drop): Dropout(p=0.0, inplace=False)
(softmax): Softmax(dim=-1)
)
(drop_path): DropPath()
(norm2): LayerNorm((512,), eps=1e-05, elementwise_affine=True)
(mlp): Mlp(
(fc1): Linear(in_features=512, out_features=2048, bias=True)
(act): GELU(approximate=False)
(fc2): Linear(in_features=2048, out_features=512, bias=True)
(drop): Dropout(p=0.0, inplace=False)
)
)
(3): RoPESwinTransformerBlock(
dim=512, input_resolution=(14, 14), num_heads=16, window_size=7, shift_size=3, mlp_ratio=4.0
(norm1): LayerNorm((512,), eps=1e-05, elementwise_affine=True)
(attn): RoPEWindowAttention(
dim=512, window_size=(7, 7), num_heads=16
(qkv): Linear(in_features=512, out_features=1536, bias=True)
(attn_drop): Dropout(p=0.0, inplace=False)
(proj): Linear(in_features=512, out_features=512, bias=True)
(proj_drop): Dropout(p=0.0, inplace=False)
(softmax): Softmax(dim=-1)
)
(drop_path): DropPath()
(norm2): LayerNorm((512,), eps=1e-05, elementwise_affine=True)
(mlp): Mlp(
(fc1): Linear(in_features=512, out_features=2048, bias=True)
(act): GELU(approximate=False)
(fc2): Linear(in_features=2048, out_features=512, bias=True)
(drop): Dropout(p=0.0, inplace=False)
)
)
(4): RoPESwinTransformerBlock(
dim=512, input_resolution=(14, 14), num_heads=16, window_size=7, shift_size=0, mlp_ratio=4.0
(norm1): LayerNorm((512,), eps=1e-05, elementwise_affine=True)
(attn): RoPEWindowAttention(
dim=512, window_size=(7, 7), num_heads=16
(qkv): Linear(in_features=512, out_features=1536, bias=True)
(attn_drop): Dropout(p=0.0, inplace=False)
(proj): Linear(in_features=512, out_features=512, bias=True)
(proj_drop): Dropout(p=0.0, inplace=False)
(softmax): Softmax(dim=-1)
)
(drop_path): DropPath()
(norm2): LayerNorm((512,), eps=1e-05, elementwise_affine=True)
(mlp): Mlp(
(fc1): Linear(in_features=512, out_features=2048, bias=True)
(act): GELU(approximate=False)
(fc2): Linear(in_features=2048, out_features=512, bias=True)
(drop): Dropout(p=0.0, inplace=False)
)
)
(5): RoPESwinTransformerBlock(
dim=512, input_resolution=(14, 14), num_heads=16, window_size=7, shift_size=3, mlp_ratio=4.0
(norm1): LayerNorm((512,), eps=1e-05, elementwise_affine=True)
(attn): RoPEWindowAttention(
dim=512, window_size=(7, 7), num_heads=16
(qkv): Linear(in_features=512, out_features=1536, bias=True)
(attn_drop): Dropout(p=0.0, inplace=False)
(proj): Linear(in_features=512, out_features=512, bias=True)
(proj_drop): Dropout(p=0.0, inplace=False)
(softmax): Softmax(dim=-1)
)
(drop_path): DropPath()
(norm2): LayerNorm((512,), eps=1e-05, elementwise_affine=True)
(mlp): Mlp(
(fc1): Linear(in_features=512, out_features=2048, bias=True)
(act): GELU(approximate=False)
(fc2): Linear(in_features=2048, out_features=512, bias=True)
(drop): Dropout(p=0.0, inplace=False)
)
)
(6): RoPESwinTransformerBlock(
dim=512, input_resolution=(14, 14), num_heads=16, window_size=7, shift_size=0, mlp_ratio=4.0
(norm1): LayerNorm((512,), eps=1e-05, elementwise_affine=True)
(attn): RoPEWindowAttention(
dim=512, window_size=(7, 7), num_heads=16
(qkv): Linear(in_features=512, out_features=1536, bias=True)
(attn_drop): Dropout(p=0.0, inplace=False)
(proj): Linear(in_features=512, out_features=512, bias=True)
(proj_drop): Dropout(p=0.0, inplace=False)
(softmax): Softmax(dim=-1)
)
(drop_path): DropPath()
(norm2): LayerNorm((512,), eps=1e-05, elementwise_affine=True)
(mlp): Mlp(
(fc1): Linear(in_features=512, out_features=2048, bias=True)
(act): GELU(approximate=False)
(fc2): Linear(in_features=2048, out_features=512, bias=True)
(drop): Dropout(p=0.0, inplace=False)
)
)
(7): RoPESwinTransformerBlock(
dim=512, input_resolution=(14, 14), num_heads=16, window_size=7, shift_size=3, mlp_ratio=4.0
(norm1): LayerNorm((512,), eps=1e-05, elementwise_affine=True)
(attn): RoPEWindowAttention(
dim=512, window_size=(7, 7), num_heads=16
(qkv): Linear(in_features=512, out_features=1536, bias=True)
(attn_drop): Dropout(p=0.0, inplace=False)
(proj): Linear(in_features=512, out_features=512, bias=True)
(proj_drop): Dropout(p=0.0, inplace=False)
(softmax): Softmax(dim=-1)
)
(drop_path): DropPath()
(norm2): LayerNorm((512,), eps=1e-05, elementwise_affine=True)
(mlp): Mlp(
(fc1): Linear(in_features=512, out_features=2048, bias=True)
(act): GELU(approximate=False)
(fc2): Linear(in_features=2048, out_features=512, bias=True)
(drop): Dropout(p=0.0, inplace=False)
)
)
(8): RoPESwinTransformerBlock(
dim=512, input_resolution=(14, 14), num_heads=16, window_size=7, shift_size=0, mlp_ratio=4.0
(norm1): LayerNorm((512,), eps=1e-05, elementwise_affine=True)
(attn): RoPEWindowAttention(
dim=512, window_size=(7, 7), num_heads=16
(qkv): Linear(in_features=512, out_features=1536, bias=True)
(attn_drop): Dropout(p=0.0, inplace=False)
(proj): Linear(in_features=512, out_features=512, bias=True)
(proj_drop): Dropout(p=0.0, inplace=False)
(softmax): Softmax(dim=-1)
)
(drop_path): DropPath()
(norm2): LayerNorm((512,), eps=1e-05, elementwise_affine=True)
(mlp): Mlp(
(fc1): Linear(in_features=512, out_features=2048, bias=True)
(act): GELU(approximate=False)
(fc2): Linear(in_features=2048, out_features=512, bias=True)
(drop): Dropout(p=0.0, inplace=False)
)
)
(9): RoPESwinTransformerBlock(
dim=512, input_resolution=(14, 14), num_heads=16, window_size=7, shift_size=3, mlp_ratio=4.0
(norm1): LayerNorm((512,), eps=1e-05, elementwise_affine=True)
(attn): RoPEWindowAttention(
dim=512, window_size=(7, 7), num_heads=16
(qkv): Linear(in_features=512, out_features=1536, bias=True)
(attn_drop): Dropout(p=0.0, inplace=False)
(proj): Linear(in_features=512, out_features=512, bias=True)
(proj_drop): Dropout(p=0.0, inplace=False)
(softmax): Softmax(dim=-1)
)
(drop_path): DropPath()
(norm2): LayerNorm((512,), eps=1e-05, elementwise_affine=True)
(mlp): Mlp(
(fc1): Linear(in_features=512, out_features=2048, bias=True)
(act): GELU(approximate=False)
(fc2): Linear(in_features=2048, out_features=512, bias=True)
(drop): Dropout(p=0.0, inplace=False)
)
)
(10): RoPESwinTransformerBlock(
dim=512, input_resolution=(14, 14), num_heads=16, window_size=7, shift_size=0, mlp_ratio=4.0
(norm1): LayerNorm((512,), eps=1e-05, elementwise_affine=True)
(attn): RoPEWindowAttention(
dim=512, window_size=(7, 7), num_heads=16
(qkv): Linear(in_features=512, out_features=1536, bias=True)
(attn_drop): Dropout(p=0.0, inplace=False)
(proj): Linear(in_features=512, out_features=512, bias=True)
(proj_drop): Dropout(p=0.0, inplace=False)
(softmax): Softmax(dim=-1)
)
(drop_path): DropPath()
(norm2): LayerNorm((512,), eps=1e-05, elementwise_affine=True)
(mlp): Mlp(
(fc1): Linear(in_features=512, out_features=2048, bias=True)
(act): GELU(approximate=False)
(fc2): Linear(in_features=2048, out_features=512, bias=True)
(drop): Dropout(p=0.0, inplace=False)
)
)
(11): RoPESwinTransformerBlock(
dim=512, input_resolution=(14, 14), num_heads=16, window_size=7, shift_size=3, mlp_ratio=4.0
(norm1): LayerNorm((512,), eps=1e-05, elementwise_affine=True)
(attn): RoPEWindowAttention(
dim=512, window_size=(7, 7), num_heads=16
(qkv): Linear(in_features=512, out_features=1536, bias=True)
(attn_drop): Dropout(p=0.0, inplace=False)
(proj): Linear(in_features=512, out_features=512, bias=True)
(proj_drop): Dropout(p=0.0, inplace=False)
(softmax): Softmax(dim=-1)
)
(drop_path): DropPath()
(norm2): LayerNorm((512,), eps=1e-05, elementwise_affine=True)
(mlp): Mlp(
(fc1): Linear(in_features=512, out_features=2048, bias=True)
(act): GELU(approximate=False)
(fc2): Linear(in_features=2048, out_features=512, bias=True)
(drop): Dropout(p=0.0, inplace=False)
)
)
(12): RoPESwinTransformerBlock(
dim=512, input_resolution=(14, 14), num_heads=16, window_size=7, shift_size=0, mlp_ratio=4.0
(norm1): LayerNorm((512,), eps=1e-05, elementwise_affine=True)
(attn): RoPEWindowAttention(
dim=512, window_size=(7, 7), num_heads=16
(qkv): Linear(in_features=512, out_features=1536, bias=True)
(attn_drop): Dropout(p=0.0, inplace=False)
(proj): Linear(in_features=512, out_features=512, bias=True)
(proj_drop): Dropout(p=0.0, inplace=False)
(softmax): Softmax(dim=-1)
)
(drop_path): DropPath()
(norm2): LayerNorm((512,), eps=1e-05, elementwise_affine=True)
(mlp): Mlp(
(fc1): Linear(in_features=512, out_features=2048, bias=True)
(act): GELU(approximate=False)
(fc2): Linear(in_features=2048, out_features=512, bias=True)
(drop): Dropout(p=0.0, inplace=False)
)
)
(13): RoPESwinTransformerBlock(
dim=512, input_resolution=(14, 14), num_heads=16, window_size=7, shift_size=3, mlp_ratio=4.0
(norm1): LayerNorm((512,), eps=1e-05, elementwise_affine=True)
(attn): RoPEWindowAttention(
dim=512, window_size=(7, 7), num_heads=16
(qkv): Linear(in_features=512, out_features=1536, bias=True)
(attn_drop): Dropout(p=0.0, inplace=False)
(proj): Linear(in_features=512, out_features=512, bias=True)
(proj_drop): Dropout(p=0.0, inplace=False)
(softmax): Softmax(dim=-1)
)
(drop_path): DropPath()
(norm2): LayerNorm((512,), eps=1e-05, elementwise_affine=True)
(mlp): Mlp(
(fc1): Linear(in_features=512, out_features=2048, bias=True)
(act): GELU(approximate=False)
(fc2): Linear(in_features=2048, out_features=512, bias=True)
(drop): Dropout(p=0.0, inplace=False)
)
)
(14): RoPESwinTransformerBlock(
dim=512, input_resolution=(14, 14), num_heads=16, window_size=7, shift_size=0, mlp_ratio=4.0
(norm1): LayerNorm((512,), eps=1e-05, elementwise_affine=True)
(attn): RoPEWindowAttention(
dim=512, window_size=(7, 7), num_heads=16
(qkv): Linear(in_features=512, out_features=1536, bias=True)
(attn_drop): Dropout(p=0.0, inplace=False)
(proj): Linear(in_features=512, out_features=512, bias=True)
(proj_drop): Dropout(p=0.0, inplace=False)
(softmax): Softmax(dim=-1)
)
(drop_path): DropPath()
(norm2): LayerNorm((512,), eps=1e-05, elementwise_affine=True)
(mlp): Mlp(
(fc1): Linear(in_features=512, out_features=2048, bias=True)
(act): GELU(approximate=False)
(fc2): Linear(in_features=2048, out_features=512, bias=True)
(drop): Dropout(p=0.0, inplace=False)
)
)
(15): RoPESwinTransformerBlock(
dim=512, input_resolution=(14, 14), num_heads=16, window_size=7, shift_size=3, mlp_ratio=4.0
(norm1): LayerNorm((512,), eps=1e-05, elementwise_affine=True)
(attn): RoPEWindowAttention(
dim=512, window_size=(7, 7), num_heads=16
(qkv): Linear(in_features=512, out_features=1536, bias=True)
(attn_drop): Dropout(p=0.0, inplace=False)
(proj): Linear(in_features=512, out_features=512, bias=True)
(proj_drop): Dropout(p=0.0, inplace=False)
(softmax): Softmax(dim=-1)
)
(drop_path): DropPath()
(norm2): LayerNorm((512,), eps=1e-05, elementwise_affine=True)
(mlp): Mlp(
(fc1): Linear(in_features=512, out_features=2048, bias=True)
(act): GELU(approximate=False)
(fc2): Linear(in_features=2048, out_features=512, bias=True)
(drop): Dropout(p=0.0, inplace=False)
)
)
(16): RoPESwinTransformerBlock(
dim=512, input_resolution=(14, 14), num_heads=16, window_size=7, shift_size=0, mlp_ratio=4.0
(norm1): LayerNorm((512,), eps=1e-05, elementwise_affine=True)
(attn): RoPEWindowAttention(
dim=512, window_size=(7, 7), num_heads=16
(qkv): Linear(in_features=512, out_features=1536, bias=True)
(attn_drop): Dropout(p=0.0, inplace=False)
(proj): Linear(in_features=512, out_features=512, bias=True)
(proj_drop): Dropout(p=0.0, inplace=False)
(softmax): Softmax(dim=-1)
)
(drop_path): DropPath()
(norm2): LayerNorm((512,), eps=1e-05, elementwise_affine=True)
(mlp): Mlp(
(fc1): Linear(in_features=512, out_features=2048, bias=True)
(act): GELU(approximate=False)
(fc2): Linear(in_features=2048, out_features=512, bias=True)
(drop): Dropout(p=0.0, inplace=False)
)
)
(17): RoPESwinTransformerBlock(
dim=512, input_resolution=(14, 14), num_heads=16, window_size=7, shift_size=3, mlp_ratio=4.0
(norm1): LayerNorm((512,), eps=1e-05, elementwise_affine=True)
(attn): RoPEWindowAttention(
dim=512, window_size=(7, 7), num_heads=16
(qkv): Linear(in_features=512, out_features=1536, bias=True)
(attn_drop): Dropout(p=0.0, inplace=False)
(proj): Linear(in_features=512, out_features=512, bias=True)
(proj_drop): Dropout(p=0.0, inplace=False)
(softmax): Softmax(dim=-1)
)
(drop_path): DropPath()
(norm2): LayerNorm((512,), eps=1e-05, elementwise_affine=True)
(mlp): Mlp(
(fc1): Linear(in_features=512, out_features=2048, bias=True)
(act): GELU(approximate=False)
(fc2): Linear(in_features=2048, out_features=512, bias=True)
(drop): Dropout(p=0.0, inplace=False)
)
)
)
(downsample): PatchMerging(
input_resolution=(14, 14), dim=512
(reduction): Linear(in_features=2048, out_features=1024, bias=False)
(norm): LayerNorm((2048,), eps=1e-05, elementwise_affine=True)
)
)
(3): RoPEBasicLayer(
dim=1024, input_resolution=(7, 7), depth=2
(blocks): ModuleList(
(0): RoPESwinTransformerBlock(
dim=1024, input_resolution=(7, 7), num_heads=32, window_size=7, shift_size=0, mlp_ratio=4.0
(norm1): LayerNorm((1024,), eps=1e-05, elementwise_affine=True)
(attn): RoPEWindowAttention(
dim=1024, window_size=(7, 7), num_heads=32
(qkv): Linear(in_features=1024, out_features=3072, bias=True)
(attn_drop): Dropout(p=0.0, inplace=False)
(proj): Linear(in_features=1024, out_features=1024, bias=True)
(proj_drop): Dropout(p=0.0, inplace=False)
(softmax): Softmax(dim=-1)
)
(drop_path): DropPath()
(norm2): LayerNorm((1024,), eps=1e-05, elementwise_affine=True)
(mlp): Mlp(
(fc1): Linear(in_features=1024, out_features=4096, bias=True)
(act): GELU(approximate=False)
(fc2): Linear(in_features=4096, out_features=1024, bias=True)
(drop): Dropout(p=0.0, inplace=False)
)
)
(1): RoPESwinTransformerBlock(
dim=1024, input_resolution=(7, 7), num_heads=32, window_size=7, shift_size=0, mlp_ratio=4.0
(norm1): LayerNorm((1024,), eps=1e-05, elementwise_affine=True)
(attn): RoPEWindowAttention(
dim=1024, window_size=(7, 7), num_heads=32
(qkv): Linear(in_features=1024, out_features=3072, bias=True)
(attn_drop): Dropout(p=0.0, inplace=False)
(proj): Linear(in_features=1024, out_features=1024, bias=True)
(proj_drop): Dropout(p=0.0, inplace=False)
(softmax): Softmax(dim=-1)
)
(drop_path): DropPath()
(norm2): LayerNorm((1024,), eps=1e-05, elementwise_affine=True)
(mlp): Mlp(
(fc1): Linear(in_features=1024, out_features=4096, bias=True)
(act): GELU(approximate=False)
(fc2): Linear(in_features=4096, out_features=1024, bias=True)
(drop): Dropout(p=0.0, inplace=False)
)
)
)
)
)
(norm): LayerNorm((1024,), eps=1e-05, elementwise_affine=True)
(avgpool): AdaptiveAvgPool1d(output_size=1)
(head): Linear(in_features=1024, out_features=1000, bias=True)
)
[32m[2024-01-21 05:23:18 swin_rope_xy_base_patch4_window7_224][0m[33m(main.py 112)[0m: INFO number of params: 87704680
[32m[2024-01-21 05:23:18 swin_rope_xy_base_patch4_window7_224][0m[33m(main.py 115)[0m: INFO number of GFLOPs: 15.438473216
[32m[2024-01-21 05:23:18 swin_rope_xy_base_patch4_window7_224][0m[33m(main.py 153)[0m: INFO no checkpoint found in /mnt/tmp/checkpoint, ignoring auto resume
…
